Lab2/model.tflite (tflite, 149220 bytes, 10 tensors)

sequential/conv2d/Relu;sequential/conv2d/BiasAdd;sequential/conv2d_2/Conv2D;sequential/conv2d/Conv2D;sequential/conv2d/BiasAdd/ReadVariableOp f4 [32, 3, 3, 3]
000000 8a 30 fc 39 40 0c 51 39 cb f7 33 39 63 17 05 b9
       0.0004810135 0.00019936357 0.0001716308 -0.0001269258
000010 4d be 80 39 48 87 d8 b9 e8 3d 5b b9 ee eb 2b b9
       0.00024555848 -0.00041299523 -0.0002090853 -0.00016395721
000020 fa a9 8d 39 6f fc 27 b9 87 12 c8 38 85 85 f9 b9
       0.00027020258 -0.000160204 9.540194e-05 -0.0004759246
000030 58 f7 e8 36 5f 6f 55 b8 45 24 8d b9 5a 15 3a 39
       6.9429334e-06 -5.088688e-05 -0.0002692064 0.00017746296
000040 05 e4 41 b9 43 49 26 b9 33 47 c0 b8 2f 1a 5b 38
       -0.00018490858 -0.00015858286 -9.168535e-05 5.2238054e-05
000050 be 21 02 b9 89 01 26 37 e7 07 bc b8 89 11 7d 38
       -0.00012410336 9.8947285e-06 -8.9660105e-05 6.033623e-05
000060 47 40 0a b9 c2 11 1d b9 39 7f 04 39 06 fb c2 b9
       -0.00013184651 -0.00014979302 0.00012635895 -0.0003718959
000070 de 91 8a 39 d8 f3 67 b9 3e 71 9b b9 fb a0 87 b9
       0.0002643009 -0.00022120716 -0.00029648276 -0.00025869146
000080 36 9e c2 b9 6b 9e d8 38 d3 14 a5 39 41 f4 8b b7
       -0.0003712044 0.0001032919 0.00031486768 -1.668383e-05
000090 9b b8 0a 38 c7 e3 03 3a f7 c7 e7 b9 f7 b6 73 b9
       3.307369e-05 0.0005031195 -0.0004420874 -0.00023242446
0000a0 9e fd 56 39 ce 2f 96 b7 30 99 36 37 c1 3d 33 39
       0.0002050311 -1.7903654e-05 1.0883712e-05 0.00017093775
0000b0 73 fd 19 3a b9 0a d4 b9 06 f9 03 39 5a f3 72 b9
       0.00058742537 -0.0004044378 0.00012585902 -0.00023169574
0000c0 08 ba 59 39 46 7e 12 3a 67 ae 20 39 eb e8 53 b9
       0.00020764035 0.0005588274 0.00015323759 -0.00020209297
0000d0 d8 20 f7 b8 66 de 55 39 6e 3c 08 ba 6e 93 f9 39
       -0.000117839954 0.00020396113 -0.0005196993 0.00047602825
0000e0 ce f6 ac 39 1b 03 b5 b8 d0 3f 5d 39 15 13 b8 39
       0.0003299028 -8.631331e-05 0.00021099974 0.00035109432
0000f0 39 c4 9e 39 b3 d7 dc b8 67 4c a2 39 57 85 86 37
       0.00030282306 -0.000105305946 0.00030955972 1.6036136e-05
000100 f3 7c f1 39 c6 66 f0 39 92 17 89 39 7f ee 3b b8
       0.00046060196 0.0004585294 0.00026148238 -4.480639e-05
000110 3d 54 0f b9 1b 1f 01 ba d2 57 98 b9 a3 80 93 39
       -0.00013668924 -0.00049255945 -0.0002905713 0.00028133867
000120 e3 04 58 38 0f a3 3e 39 ec 86 28 38 70 a4 6f 38
       5.1502964e-05 0.00018180556 4.0179977e-05 5.7135185e-05
000130 1d 29 93 39 b1 6a 38 3a e7 b1 c7 b9 42 eb c0 39
       0.00028068657 0.0007034941 -0.00038088785 0.00036796374
000140 18 13 7f 39 db 02 ee b9 53 dd bb 39 77 07 aa 39
       0.00024325808 -0.00045397025 0.0003583232 0.00032430488
000150 03 7a fd 39 3b 0c c3 39 3a b1 02 39 67 74 b3 38
       0.00048346826 0.0003720241 0.00012463788 8.557067e-05
000160 7f 33 8a b9 2c 40 78 b9 fd ff c9 38 f9 ac 1b b9
       -0.0002635978 -0.00023675029 9.6321084e-05 -0.00014846389
000170 59 d2 63 b9 7e f7 e0 b7 06 e4 ab 39 1f 0c 85 b8
       -0.00021726768 -2.6818128e-05 0.00032785552 -6.344192e-05
000180 ac 84 ec 39 61 19 c6 b9 c0 b6 d8 36 4d 03 38 39
       0.00045112276 -0.00037784412 6.4585765e-06 0.00017548837
000190 1e ac 87 38 4e c8 1f b9 1e 8e 20 3a ce e2 ef 39
       6.469361e-05 -0.00015238041 0.0006124693 0.00045754615
0001a0 5e 7e 63 39 16 69 eb b8 16 75 9f 39 a7 7d e1 39
       0.00021695482 -0.00011225247 0.0003041408 0.00043008963
0001b0 8d 36 97 b9 77 32 1d 39 87 63 e3 39 79 bb 0b ba
       -0.00028841608 0.00014991486 0.00043370968 -0.0005330365
0001c0 a1 b0 de b9 7c 65 ac b9 c4 a1 aa b9 39 9c f9 38
       -0.00042474738 -0.00032882008 -0.00032545452 0.00011902344
0001d0 17 70 ca 39 d0 d1 dc 39 4e 87 f3 39 d1 52 05 39
       0.00038611956 0.00042117992 0.00046449382 0.0001271472
0001e0 dd 4f d0 39 21 28 84 39 38 33 00 3a 69 7f e4 b9
       0.00039732354 0.000252069 0.00048904447 -0.00043582477
0001f0 43 e1 12 3a 79 07 0a 39 ac ab ad 39 e2 2e 68 39
       0.00056030246 0.0001316349 0.00033125037 0.0002214271
000200 83 c7 aa 39 fa df 73 b9 f0 1b 8d b9 0a a5 a8 39
       0.00032573575 -0.00023257724 -0.0002691443 0.0003216642
000210 4e 30 88 b9 5a 44 11 39 fc 51 ce b9 c9 a1 9c b9
       -0.0002597593 0.0001385374 -0.00039352465 -0.00029875178
000220 56 1f 02 3a f0 56 84 39 96 8c 11 3a e0 ff e8 39
       0.0004963776 0.00025241775 0.000555226 0.0004444113
000230 bb d8 86 b9 bb 95 8d b9 d8 03 a7 b9 a0 27 59 39
       -0.00025719948 -0.00027005174 -0.00031855586 0.00020709494
000240 21 65 58 38 7e a8 01 39 c9 6c 3d 39 01 bc 01 b9
       5.1592597e-05 0.00012365167 0.0001806497 -0.00012372436
000250 cb cb 10 3a 24 5e d3 39 11 08 66 b9 7c 3a fc b9
       0.00055235316 0.00040315196 -0.00021937514 -0.0004810876
000260 85 77 15 3a 55 74 09 b9 96 97 b2 b9 c4 ac a9 b9
       0.0005701709 -0.00013108675 -0.00034063746 -0.00032362912
000270 74 37 35 b9 5e 14 07 3a f3 be 25 39 88 25 ae 36
       -0.00017282163 0.0005152876 0.0001580676 5.1899733e-06
000280 d6 6e bb b9 ce 8a b0 b9 82 df 83 38 d9 84 09 ba
       -0.0003575 -0.00033672753 6.288198e-05 -0.0005245931
000290 4f 69 da 39 ef 70 84 39 be af 40 ba d6 b6 30 39
       0.0004165866 0.00025261144 -0.00073504064 0.0001685278
0002a0 a4 56 f1 b9 ff f7 39 ba ac ac ef 39 1b 67 ff b9
       -0.00046031654 -0.0007094144 0.00045714283 -0.0004871421
0002b0 4b 96 59 b9 13 b5 0f 3a db 5e 08 3a 3b 5a 86 b9
       -0.00020750721 0.0005481999 0.0005202123 -0.000256257
0002c0 f3 07 7d b9 57 bd 0c 3a 67 fc 06 b9 d8 12 8c b9
       -0.00024130922 0.000536879 -0.00012873263 -0.0002671692
0002d0 54 11 b2 39 0e 7f 92 b9 e6 da db 39 9a 9c 9f 39
       0.00033963716 -0.00027941953 0.00041934027 0.0003044352
0002e0 5c b4 68 38 97 9d 4a b9 f3 6c ef 37 18 45 89 b9
       5.5481083e-05 -0.00019322928 2.8541754e-05 -0.00026182155
0002f0 99 51 de 39 f4 1a 15 3a 7e 3a 46 b8 e1 93 26 38
       0.00042403935 0.0005687915 -4.7261354e-05 3.9715207e-05
000300 51 5b d3 b9 e2 0f 01 ba 3b d6 b7 b9 3f de c3 39
       -0.00040313092 -0.0004923326 -0.00035064094 0.00037358885
000310 36 26 b6 37 4e ba 12 b6 04 eb a8 b9 ba 9d 52 b9
       2.1713884e-05 -2.186414e-06 -0.00032218557 -0.00020085918
000320 2d a2 49 38 6f 4e 04 b9 37 d7 dc b9 57 27 83 39
       4.8073172e-05 -0.0001261772 -0.00042122017 0.00025015578
000330 f5 a9 12 3a f8 d9 1f 39 f1 21 b8 39 d7 6a d1 b8
       0.00055947836 0.00015244621 0.00035120503 -9.985797e-05
000340 d1 db 8c 39 4e 64 b8 b8 cd 8f 41 b8 1a 5b 1b ba
       0.00026866657 -8.792487e-05 -4.614871e-05 -0.0005926356
000350 39 84 ce b9 19 dc 2d b9 50 97 0d 3a 2c d2 2f b9
       -0.00039389895 -0.00016580558 0.00054012705 -0.00016767596
000360 a3 85 9b 39 6f f2 65 b9 d4 e1 33 b9 72 f3 d0 b9
       0.0002966347 -0.00021929455 -0.00017154898 -0.00039854232
000370 b6 e7 c9 39 a8 62 86 b9 92 20 07 3a 1a 8a b0 b9
       0.00038510346 -0.00025631976 0.00051546947 -0.0003367223
000380 75 1c 71 b7 f8 c7 04 ba 1e 6a 94 b9 ad 7a 95 b9
       -1.4371345e-05 -0.0005065198 -0.00028307823 -0.00028510895
000390 6e d0 66 39 22 a6 2d 37 85 20 a6 b9 22 06 d2 b9
       0.00022012155 1.0350284e-05 -0.00031686216 -0.0004005889
0003a0 aa 28 78 39 11 ef 50 b8 41 5c d8 39 bf 13 80 b8
       0.00023666272 -4.9813712e-05 0.00041267465 -6.1071936e-05
0003b0 1f c8 b4 b9 18 95 3d 39 71 7e 84 b9 c8 35 61 39
       -0.00034481377 0.00018079986 -0.00025271208 0.00021477707
0003c0 67 9c 9b 39 f1 53 01 3a 0b cf d6 b9 58 bf 86 b9
       0.00029680433 0.0004933468 -0.0004097152 -0.00025701034
0003d0 cf 12 02 ba 5f 95 a2 38 b4 b5 80 38 b9 c2 c3 39
       -0.0004961909 7.7525845e-05 6.1373605e-05 0.00037338378
0003e0 ee 9c 5e 39 4d 83 04 b7 5f 04 04 ba 26 c0 8d b9
       0.0002123003 -7.898384e-06 -0.0005036052 -0.00027036777
0003f0 68 59 10 ba 52 5e 92 39 69 43 7d 39 d1 a7 d2 39
       -0.00055064866 0.00027917564 0.00024153072 0.00040179354

sequential/conv2d/BiasAdd/ReadVariableOp f4 [32]
000000 b1 3e 02 3d e2 3e 0e 3d 0d d9 0f bd b4 5f 36 bd
       0.03179807 0.03472794 -0.035119105 -0.044524863
000010 a6 b8 b0 bc 46 40 52 bb 82 13 e4 3c 68 da 9e 3c
       -0.021572422 -0.0032081767 0.027841333 0.019391254
000020 f9 c2 e1 3b 13 06 83 3c ff 98 51 3c b6 cd 04 bc
       0.0068896976 0.015994107 0.012792825 -0.008105686
000030 36 4b 94 bb e8 f9 8d 3c cc cc d8 bb 82 fc 91 bc
       -0.0045255674 0.017331079 -0.0066162106 -0.0178206
000040 43 5b 9e bb 0e ed 96 bc 5c b5 0b 3b c2 16 af 3c
       -0.0048326566 -0.018423583 0.0021317815 0.021373156
000050 fc 3f 40 b9 7d 62 fd 3c ac 4c 19 bd c6 d5 8f 3b
       -0.00018334383 0.030930752 -0.037426636 0.0043894975
000060 f0 79 47 bd e1 4d cc bc 67 9a bb bb 92 c2 31 bd
       -0.048700273 -0.02493948 -0.0057251933 -0.043398447
000070 ad ff b0 3c b6 05 b8 39 3f 32 0e bb c8 76 9a bc
       0.02160629 0.0003509947 -0.002169743 -0.018855467

sequential/conv2d_1/BiasAdd/ReadVariableOp f4 [32]
000000 01 2d 50 bc 9b 93 48 3c ac e7 5b bc ec 1a 89 3b
       -0.012706042 0.012242223 -0.013421934 0.0041841175
000010 3c 16 c4 bb da e2 8e 3c 1b 2d 35 bd 41 aa 4d 3c
       -0.005984096 0.017442156 -0.04423247 0.012552799
000020 aa 83 e5 bb e6 b1 3e 3c c8 70 b8 bb 0c b0 15 bd
       -0.007004221 0.011639094 -0.005628679 -0.036544845
000030 f1 e9 07 bc 6d 2b 73 bc 19 e9 41 bc c9 c0 fa bc
       -0.008295522 -0.0148418965 -0.01183536 -0.030609505
000040 00 00 00 00 1d fb 0c bd 00 00 00 00 9f 31 08 bd
       0.0 -0.034419168 0.0 -0.033250447
000050 f4 24 8d bb 8e 1c b9 bc 74 69 6f bb 9f 01 05 3d
       -0.0043073837 -0.022596624 -0.003653136 0.03247225
000060 b9 92 9a 3a 13 f5 4f bc 4d ac bf 3c 4e c1 13 bb
       0.0011792994 -0.012692708 0.02339759 -0.0022545638
000070 5b e2 8e bc dc 7f 0d 3d 7b 86 72 bc 6e ab c4 bb
       -0.01744192 0.034545764 -0.01480257 -0.0060018813

sequential/conv2d_2/BiasAdd/ReadVariableOp f4 [32]
000000 a2 8d 9d bc 20 47 a9 3c 73 73 0a bc 4a 80 70 3c
       -0.019232575 0.020663798 -0.008450377 0.014679024
000010 48 77 b0 bb 03 d9 fa 3c 08 3d 02 bc 77 73 35 bc
       -0.005385313 0.030621057 -0.007949121 -0.011074892
000020 00 00 00 00 57 4a ac 3c 35 74 ab 3b 04 eb b0 3a
       0.0 0.021031542 0.005232359 0.0013497774
000030 f1 41 ff 3c 00 00 00 00 a4 aa dd 3c 91 96 e0 bb
       0.031159373 0.0 0.027058907 -0.0068538864
000040 d7 59 e0 3c 70 1d ef bb 3e 5b 4a bc ee d4 1a bc
       0.027386589 -0.0072972104 -0.012350855 -0.00945018
000050 8e fe 0f bd 60 6f 54 3c a2 95 ba bb ca 6a ab bc
       -0.03515487 0.012966007 -0.005694107 -0.020924944
000060 4d 7e e9 3c 29 f5 e8 bb aa 29 d0 bc c0 e2 55 3c
       0.028502608 -0.0071093035 -0.025410492 0.01305455
000070 d1 67 1a bc a1 17 ad 3c 2c 5b be bb ab e7 3e 3c
       -0.009424166 0.021129431 -0.0058092084 0.011651914

sequential/conv2d_1/Conv2D f4 [32, 3, 3, 32]
000000 91 28 8b 3d b7 b2 de bc f8 88 c4 bd 79 c0 88 bd
       0.06794847 -0.027184827 -0.09596437 -0.06677336
000010 65 2d ac bd e6 f6 9e bc 0b 40 eb bd 8b 12 bd bd
       -0.08407096 -0.01940484 -0.114868246 -0.092320524
000020 74 56 bb 3d 3d 87 e4 bd 17 a9 82 3b 54 ef bc bd
       0.09147349 -0.11158607 0.0039874422 -0.09225336
000030 90 be 05 bd 3f 2d 82 3d f5 cd 9d bd b4 d9 52 3d
       -0.032652438 0.06356286 -0.07705299 0.05147715
000040 0a 1c c8 3c b3 c3 68 bd 45 a6 ea 3b 3f e0 bd 3d
       0.024427433 -0.05682726 0.007160934 0.09271287
000050 ba be c8 3d 35 ec f8 bd 70 00 cf bd 46 8d ce 3c
       0.09802003 -0.12154428 -0.10107505 0.025213849
000060 17 cc 2a 3d 0a 25 dd bb 28 31 ec 3c f1 72 be 3c
       0.04169854 -0.0067488 0.028832033 0.023248168
000070 cd 19 1b bd e6 23 f6 bc ad 32 b1 3c 59 a4 4f 3c
       -0.037866402 -0.030046415 0.02163061 0.012673461
000080 ae ab bc bc 0b 1e 04 be b5 47 e6 bd dc e2 f4 3c
       -0.023031082 -0.12902085 -0.11244146 0.029893331
000090 b3 aa 65 3d 31 a6 3e bd f5 f9 40 be 6d 70 a1 bd
       0.056070995 -0.04654521 -0.18845351 -0.07882772
0000a0 00 84 78 3d c2 30 10 bd 5e 8b c6 3d f3 9e 89 3d
       0.06067276 -0.03520275 0.09694551 0.0671977
0000b0 d1 8f 1c bc 4d 7d f7 3d 07 7a 8a 3d 0a 11 cd 3c
       -0.009555773 0.12084446 0.06761556 0.025032539
0000c0 e9 aa 6f bd 13 30 54 3d 66 ea 20 3d d3 b5 a4 bd
       -0.058512602 0.05180366 0.03928604 -0.08042493
0000d0 90 29 9a bd 7f e7 ea bc 4f 35 28 3d 7c 26 00 bc
       -0.07527459 -0.028674839 0.041066464 -0.007821675
0000e0 7a dd 9e 3d 62 4f c8 bd 0d 3c b5 bd 32 28 87 bd
       0.07757087 -0.09780766 -0.088493444 -0.065994635
0000f0 d7 7c 23 be 65 75 ff 3b 58 2d e0 3c 7f 72 90 bd
       -0.15965591 0.007795977 0.027365372 -0.070530884
000100 8d 7e 77 3d 3b 20 82 bd ee 8b 67 3d 5e 12 a2 3d
       0.060423423 -0.06353804 0.05652993 0.079136595
000110 3a 64 42 3d 7d 1f f3 bc ef 66 46 be c4 ed c5 3c
       0.047458865 -0.0296781 -0.19375204 0.024161227
000120 29 cb 82 3d df 81 82 3d fe 6a b2 3d e4 f1 f5 3c
       0.06386406 0.06372427 0.087118134 0.030022569
000130 55 f2 87 bd 85 d6 16 3d 31 ef bd bd 8c 19 50 bd
       -0.06638018 0.036825676 -0.09274138 -0.050805613
000140 33 2e a7 3d 7f 30 a3 bd fe 69 d4 3c 6a 61 a7 bd
       0.08163109 -0.07968234 0.025929447 -0.08172877
000150 8c 6c cc 3c 0a 77 12 be 74 23 4e 3d df 56 2b 3a
       0.024954103 -0.14303222 0.05032678 0.0006536077
000160 10 23 aa bd 85 02 d3 bd 3d 74 f2 3c 86 5f 6c 3d
       -0.08307469 -0.10303215 0.029596442 0.057708286
000170 a6 eb 14 be 00 13 b8 bd 3e 96 a2 3d 53 15 d3 3c
       -0.14543018 -0.08987999 0.07938813 0.025767004
000180 0e 6c 7c 3c 3b ab 25 3b 8d 2b cf bd 11 d5 c9 3d
       0.015406622 0.0025279063 -0.101157285 0.09855092
000190 fd f7 71 3d 31 6f aa bc 4a c1 51 be 8e 0c ac 3d
       0.05907439 -0.020804973 -0.2048389 0.08400832
0001a0 b9 22 b4 3d 8d c1 cf 3c cb a3 78 3d e2 d5 2e bc
       0.08795685 0.025360847 0.06070308 -0.010671111
0001b0 04 53 55 bd c9 59 60 bd 5f 91 b8 bd 6c 4d 86 bd
       -0.052081123 -0.054773126 -0.09012102 -0.06557736
0001c0 d8 49 3e ba 59 f8 ee bb f6 fe 82 bd b5 cb a2 bc
       -0.00072589284 -0.007292789 -0.06396286 -0.019872526
0001d0 62 fc a0 bd 42 55 33 bc e9 30 8f 3d c1 f7 c4 3c
       -0.07860638 -0.01094562 0.06991751 0.02404392
0001e0 5f 86 37 3d 05 23 33 3d 9e d5 a9 3d 4e 07 ec bc
       0.04480588 0.04373457 0.08292697 -0.028812077
0001f0 b8 6f 1b bd e5 c4 a0 bc 24 f9 b0 3c da 5f 4e bd
       -0.03794834 -0.019625137 0.021603175 -0.05038438
000200 4a cd 16 3d 44 d6 95 bd d7 dd 4d 3c a8 9a b0 3d
       0.036816873 -0.073162585 0.012565098 0.08623248
000210 74 48 20 3d 38 7b b2 bc 0b 22 1f be fb ff 33 bc
       0.039131597 -0.02178727 -0.1554033 -0.0109863235
000220 dc 9a 07 bc 5a 8e d6 bc 49 b2 22 3d 16 8f 9f 3d
       -0.008276667 -0.026190925 0.039720807 0.07790963
000230 75 d5 11 bd 72 57 0d 3e b6 54 29 bd 78 b8 04 3c
       -0.03560396 0.13802889 -0.041340552 0.008100621
000240 f8 ab 85 bb 3c 39 2d 3d 72 28 f5 bc 20 7c d2 3d
       -0.004079338 0.04229091 -0.029926512 0.10277581
000250 74 46 cb bc 85 ef ff bd 24 00 d4 bd fa 70 eb 3c
       -0.024813868 -0.124968566 -0.10351589 0.028740395
000260 38 ae bf bc 67 f1 f3 bc 60 a2 cd 3b 09 67 a1 bd
       -0.023398504 -0.029778196 0.00627546 -0.078809805
000270 cb b4 4a 3d 3d ee 22 3d 79 cd b1 3d 50 89 90 3c
       0.049488824 0.039777983 0.08681769 0.0176436
000280 94 91 e4 3c 14 92 3d 3d 93 e8 3a 3d 29 3a e7 3d
       0.027901448 0.04628189 0.045631956 0.1129039
000290 34 c1 8e 3d 2c 5e dd bc 9f cd ff bd d1 b7 b1 bd
       0.06970444 -0.027022444 -0.12490391 -0.08677638
0002a0 ca 77 b9 3d 0a 91 a9 3d 9f a6 10 bd 8b 18 09 bd
       0.09056051 0.08279617 -0.035315152 -0.03347067
0002b0 f1 e6 9b bb 09 54 91 3c db 04 22 3c 94 1b 65 bd
       -0.004757755 0.017740266 0.009888853 -0.055934504
0002c0 a3 50 44 3c 56 2d bf 3c ec b8 07 3e 38 40 60 3d
       0.011982116 0.023337048 0.13254136 0.054748744
0002d0 f7 11 8e bd fb c0 07 bd d0 45 c6 3d fe 52 bf 3d
       -0.0693702 -0.033143025 0.096812844 0.093420014
0002e0 c0 3a fa 3b f1 f8 74 3d 40 d3 53 bb 29 cd eb 3c
       0.007636398 0.05980772 -0.003232196 0.028784351
0002f0 79 a1 02 bd 42 40 89 bd 5a 2e 43 bd a4 57 37 3d
       -0.031892274 -0.06701709 -0.047651626 0.044761315
000300 a2 b0 24 3d 02 b2 0f bc d1 97 7c 3d 3a 83 d4 3d
       0.040207513 -0.008770468 0.06166822 0.10376592
000310 5f ee f4 bd 9d 16 d0 3c 57 b5 51 bd 8d 89 82 3d
       -0.11959528 0.025401408 -0.05119833 0.06373892
000320 90 b5 50 3b 4d 3d 4b bd 28 8d b4 3d a1 d4 b9 bd
       0.00318465 -0.049619008 0.08815986 -0.09073759
000330 4e 2b 11 3c dc e7 84 3a 8a 2e 00 3e 94 d4 4e 3d
       0.008860422 0.00101399 0.12517753 0.0504957
000340 9c 0f 28 3c 24 dc 00 bd 26 77 50 3d 58 34 c4 bb
       0.010257628 -0.031459942 0.05089488 -0.005987685
000350 9c fd a5 3c f0 ca 78 bd 95 ed 50 bd 14 eb 36 3d
       0.020262532 -0.06074041 -0.051007826 0.04465778
000360 9d eb 03 bc 48 58 ab 3d 20 6a 24 3d d3 7e d8 bc
       -0.00805178 0.08366448 0.04014027 -0.026427662
000370 5b a5 ac bd 6f 21 c2 3d 8d e7 ff 3b 9d 9b c9 3d
       -0.084299766 0.09479033 0.0078095854 0.09844134
000380 90 92 bc 3d 15 5d 82 3c b0 f5 a3 bd 14 47 69 bd
       0.09207642 0.015913526 -0.080058455 -0.05695255
000390 13 8e a8 bd fc 85 50 bd dd ad 34 bd de a8 23 3d
       -0.082302235 -0.050909027 -0.04411112 0.039955966
0003a0 ca 17 dc 3d aa ce 27 3c 92 ef da bc a1 fd 7e 3d
       0.10746725 0.010242144 -0.026725564 0.062253598
0003b0 96 6f f1 bc 65 79 81 bd d7 ee a8 bd 51 4e f7 bc
       -0.029472154 -0.06321982 -0.0824868 -0.030188711
0003c0 81 a4 fa bb 24 55 10 3b 7a e6 5d 3d 56 be 56 3d
       -0.007649005 0.0022023404 0.054174878 0.052427612
0003d0 31 70 df 3d 79 56 d2 bd 70 8b ce 3c ed 49 e0 3d
       0.10910071 -0.102703996 0.025212973 0.109516
0003e0 95 35 58 bd 09 fc cb 3c 18 99 96 3d 93 77 ab 3d
       -0.052785475 0.024900453 0.07353419 0.08372416
0003f0 76 88 26 3d 09 49 a9 3d 79 a3 51 bd 0a dd e4 3d
       0.040657483 0.082658835 -0.05118129 0.11174972

sequential/conv2d_2/Conv2D f4 [32, 3, 3, 32]
000000 14 db 99 3d 11 35 15 bd 5b ac 7c bd f8 b3 36 3b
       0.07512489 -0.03642756 -0.06168781 0.0027878266
000010 98 53 df bd 9e 3b a1 3d ee 2f 7c 3d da 85 96 3d
       -0.10904616 0.07872699 0.061569147 0.07349749
000020 88 33 bf bd 3e 6f 91 bc 0a d9 4f 3d da fc 2d bd
       -0.09336001 -0.01775324 0.050744094 -0.042477466
000030 00 5f 19 bd 5a 24 d2 3a ee 6a ab bd ca 30 9d bd
       -0.037444115 0.0016032562 -0.083700046 -0.076753214
000040 e6 24 47 bd 9c a6 b6 bd 70 ac e3 bc c4 84 82 bd
       -0.048619173 -0.08918497 -0.027792186 -0.06372979
000050 9c 73 a3 3d ec 8d 5e bd 2b 68 d6 bd e1 24 b6 bc
       0.07981035 -0.054334566 -0.10469087 -0.022234382
000060 62 81 ac 3d 17 70 4e bd 43 1b 2e 3d c4 4f a7 bd
       0.08423115 -0.050399866 0.042506468 -0.08169511
000070 df 61 5b 3d c3 b9 a4 bd 9f f4 8d bc 50 6a 4d 3c
       0.053560134 -0.08043244 -0.017328558 0.012537554
000080 08 3f 47 3d a6 d1 2d bd 95 5c 3b 3d 34 2c 10 bc
       0.048644096 -0.042436264 0.04574259 -0.008799601
000090 7b 58 bc bc d6 63 b2 bb 30 85 e2 3c 20 0d e4 3c
       -0.02299141 -0.0054440303 0.0276514 0.02783829
0000a0 57 54 a5 3b b6 98 23 bd 52 3f 6d 3c 5d 28 5f 3d
       0.0050454545 -0.03994056 0.014480429 0.054481853
0000b0 3e 69 df bc da 47 61 3d 83 71 5c bd dd ba b9 bd
       -0.027271863 0.055000164 -0.05381919 -0.090688445
0000c0 a0 ea 4e 3d f4 60 1b 3d 30 a9 b9 3d 7d e5 75 bc
       0.050516725 0.03793426 0.09065473 -0.015008328
0000d0 1c 9e 72 3d 5c d6 27 3d e1 37 1e 3d 33 03 1b be
       0.059232816 0.040975913 0.03862751 -0.15137939
0000e0 a3 dc cb bb f5 7b a1 3d 2a 66 e7 bd 99 32 b4 3d
       -0.0062213703 0.07884971 -0.11298783 0.08798713
0000f0 3c 39 ac bc 09 84 2e be ea a5 ef 3d cb f0 b6 3d
       -0.021023385 -0.17042555 0.117015675 0.08932646
000100 0a 9f e2 3c a7 f5 39 bd 72 e2 1f 3d 6d 42 88 bd
       0.027663726 -0.045400288 0.039034314 -0.06653295
000110 81 45 e4 3d 9c d3 ac bb e7 74 3d 3d 03 79 1c 3d
       0.11146069 -0.0052742492 0.046254065 0.038201343
000120 2c d3 c6 3d 20 8d 22 bd e6 67 ba bb e9 bf 40 bd
       0.097082466 -0.03968537 -0.005688655 -0.04705802
000130 83 13 c3 3d 95 0f 5e bd 16 50 78 bd 00 61 91 3d
       0.09525206 -0.05421408 -0.06062325 0.070985794
000140 4a bd 91 bd 04 ea 46 bd 5c f4 8a bd 86 e1 8c 3d
       -0.07116182 -0.04856302 -0.06784889 0.06878953
000150 ae 4c b3 3d 9e 58 82 bd c6 04 b1 3d e0 fd c7 bc
       0.0875486 -0.06364559 0.086434886 -0.02441305
000160 e3 2e 85 3d a9 5b 2f bd bd be 1d bc b7 46 78 bd
       0.065030836 -0.042812023 -0.009627995 -0.060614314
000170 a7 63 d3 3d bd 41 66 bd f0 4d b1 bc b8 e8 91 bb
       0.103217416 -0.056215037 -0.021643609 -0.004452791
000180 3b a9 28 bd 26 63 eb bc d8 bc a2 bd 9e 12 7d 3d
       -0.041177016 -0.028733801 -0.07946175 0.061785333
000190 01 05 ba 3d a9 7a 97 bd fc b2 3f bc 48 ac 74 bd
       0.09082986 -0.073964424 -0.011700388 -0.059734613
0001a0 8e a4 8e 3d bc f1 36 b7 dc 40 9b 3d 07 fc e8 bc
       0.0696498 -1.09043285e-05 0.0758073 -0.028440489
0001b0 d7 b4 dc bc 3f 2d c1 bc 70 72 c0 bc 34 c7 2a 3d
       -0.0269417 -0.023581145 -0.023492068 0.04169388
0001c0 9c 0e 69 3d b6 84 ee bc 2f 4a ca bd 7f 9e b9 3c
       0.0568987 -0.029116016 -0.09877431 0.022658585
0001d0 e1 cb ac 3b 9c 45 5d 3c 52 af 99 3d d6 c3 4c 3d
       0.0052733277 0.013505366 0.07504143 0.04999145
0001e0 b7 d8 09 3d b8 17 98 3d 53 c6 4c bd 15 2a 42 3c
       0.03365394 0.07426399 -0.049993824 0.011850853
0001f0 27 09 bf bc 60 a0 89 bd f2 c7 b0 3c 03 40 56 bd
       -0.023319794 -0.06720042 0.021579716 -0.05230714
000200 b5 fb ba b9 85 fd 18 bd 65 bb 5b 3c ed 67 9c 3d
       -0.0003566422 -0.03735115 0.013411378 0.0763701
000210 d1 cc d7 bd fd 21 2f bd 08 44 a4 bd ce 67 ee 3c
       -0.105371125 -0.042757023 -0.080207884 0.029102232
000220 33 e0 a8 3d 2f 9b e2 3c e4 b9 9d bd 24 af f3 bb
       0.082458876 0.027661888 -0.077014714 -0.00743665
000230 3c e4 96 3d 5f 3c 48 3d d1 86 5f bc 26 75 3f 3d
       0.07367751 0.0488857 -0.013642983 0.04674258
000240 f8 40 2d 3d 7c ae cd 3b 7f 3c 85 bd 9e 7e d1 3c
       0.042298287 0.0062769037 -0.06505679 0.025573071
000250 ec 9a d2 3d 8a 9a 9e 3c 82 7c 5e 3d 95 35 1e 3c
       0.10283455 0.0193608 0.05431796 0.00965633
000260 d8 67 87 bb e5 1a ef 3d cc db 4a bd 96 05 c3 3d
       -0.004132252 0.116750516 -0.04952602 0.0952255
000270 86 54 df 3d c7 72 0d bd a7 81 6f 3d 75 45 d1 bd
       0.109047934 -0.03453329 0.058473255 -0.10218326
000280 3e 8b 82 bd 10 e3 af bd 03 d4 7b 3d 59 96 84 3d
       -0.063742146 -0.085882306 0.061481487 0.06473989
000290 3c 7e 98 3d cf e8 43 3c 11 5a 9e bd f5 1b 82 bc
       0.07445952 0.011957361 -0.077320226 -0.015882472
0002a0 75 f7 1f bc 32 aa e4 3c 33 8f b4 bc 88 d5 fc 3c
       -0.009763588 0.027913187 -0.022040939 0.030863538
0002b0 58 38 f3 bc f4 0f 82 3c 97 90 8c 3d 3f d8 3f bb
       -0.029689953 0.015876748 0.06863516 -0.002927318
0002c0 10 5a be 3c b4 83 5b bc d6 9c 54 bd a8 95 a0 bd
       0.023236305 -0.0133981 -0.051907383 -0.07841045
0002d0 15 1a 94 3d 1d a1 37 bd 1b 69 6b 3d 3c 10 f3 bd
       0.07231537 -0.044831384 0.057473283 -0.11868331
0002e0 11 27 b0 bc 66 59 87 3d fc 2d d2 bd 69 b0 0b 3d
       -0.021503003 0.06608848 -0.10262677 0.034103785
0002f0 ce 52 73 3d 3d f5 bc bc 9d 39 8b bc ab 45 87 bd
       0.05940514 -0.023066157 -0.016995246 -0.06605085
000300 a6 3f b6 3d ad 28 a8 3d 09 02 cb bb b2 c0 0b 3d
       0.08898859 0.08210883 -0.006195311 0.034119315
000310 05 12 01 bd 32 f8 2c 3d 94 a3 32 3d 7d f8 68 3c
       -0.031511325 0.042228885 0.04361303 0.0142194005
000320 01 12 13 bd 34 9b f9 bc 23 d5 ae 3d 79 4f 64 3d
       -0.03590584 -0.030469514 0.08536746 0.055739854
000330 f0 02 aa 3b 1a a1 6e bd 3d 45 ae 3d c4 d0 70 3d
       0.0051883385 -0.058259107 0.085093 0.058792844
000340 7c 44 09 bd 6b 98 36 3c 94 64 3f 3d 6e 2d f1 38
       -0.033512577 0.011144738 0.04672678 0.000115002375
000350 14 05 23 3d 0f 9f 6c bd 5d f2 e2 3d 3e 4d 5d 3d
       0.039799765 -0.057768878 0.110813834 0.054028742
000360 c7 fa 40 3d e1 8b 28 3d 3b 38 b8 3c d0 99 20 3d
       0.04711416 0.041149024 0.02248775 0.039209187
000370 43 62 ca bd c0 98 cd bd 71 6f 94 bd 30 dc 6c 3d
       -0.09882023 -0.100389004 -0.07247818 0.057827175
000380 df ef 5f bd 27 c4 f1 3d e4 73 6c bd 27 c7 71 3c
       -0.05467212 0.11804991 -0.05772771 0.014756954
000390 93 a2 c0 bd 10 0c 1b 3d 14 99 8a 3d 51 6c 85 bd
       -0.094060086 0.0378533 0.067674786 -0.065148
0003a0 1e 7a b3 39 c8 f6 cf 3d bf 7e b0 3d f0 0b 49 3c
       0.00034232525 0.10154492 0.08617925 0.0122709125
0003b0 3f 7d 8c bd a5 26 a8 3d 90 15 89 3d d5 e2 b7 3d
       -0.06859826 0.08210496 0.06693566 0.08978812
0003c0 f2 82 84 bd 51 57 8d 3d 38 18 91 3c 0a e9 d9 3d
       -0.06470288 0.0690142 0.017711744 0.10640152
0003d0 be d5 e2 3d 2a 57 89 bd b9 3e 09 bd 39 b4 a9 bd
       0.11075924 -0.06706078 -0.033507083 -0.08286328
0003e0 07 e9 01 bc 5a c3 59 3d bc 36 7d bc 3f 01 89 3d
       -0.007929093 0.053164817 -0.015454944 0.06689691
0003f0 bd d4 a8 3c 67 03 2d 3d 77 07 ae 3d 57 fa 41 bd
       0.020609254 0.042239573 0.084975176 -0.047357883

sequential/dense/BiasAdd/ReadVariableOp f4 [128]
000000 ff bb a2 3c 46 94 60 3c 5a e1 bc ba 3e 88 29 3c
       0.019865034 0.013707226 -0.0014410422 0.010347424
000010 bd 49 b5 3c 1c 02 47 3c d0 30 7b 3c 8e a0 bf 3c
       0.022129888 0.012146499 0.015331462 0.023391988
000020 e9 f1 bc bb 0d b9 5b bc bc b8 b5 bb dc 5d 73 bb
       -0.0057661426 -0.013410819 -0.0055457037 -0.0037134802
000030 08 b5 f6 b9 9c ff 6a 3c 09 e8 1b 3c f8 6b 8f 3c
       -0.00047055655 0.014343169 0.009515771 0.017507538
000040 00 00 00 00 76 4d d4 3c 5c be 51 3b 3d 0e 8c bb
       0.0 0.025915843 0.0032004332 -0.0042741583
000050 56 26 7d bb 88 f8 e7 3b 00 00 00 00 ef 57 8d 3c
       -0.0038627586 0.007079188 0.0 0.017253844
000060 d0 ae 80 3b 99 6e b9 ba d3 6f 86 bc 5d ba 20 bc
       0.0039270893 -0.001414734 -0.016410744 -0.0098100575
000070 ff 9e 32 3b 92 d0 0d bb 30 0a 5f bc b3 53 0a bc
       0.0027255414 -0.002163921 -0.013613269 -0.008442807
000080 af 38 1e bc 66 6d 10 bc 4c 47 48 3c b0 e5 08 bc
       -0.009657069 -0.008815145 0.01222403 -0.008355543
000090 af 6a ac b9 00 00 00 00 6d bc 91 3c 84 2c be bb
       -0.00032885882 0.0 0.017790044 -0.0058036465
0000a0 9b f1 2a bc f0 d4 46 3c 8e 63 61 bc 5a 98 f1 bb
       -0.01043358 0.012135729 -0.013756646 -0.007372898
0000b0 de b3 98 bb 1e f0 c5 3a c5 fe 8c 3c 59 91 ba 3c
       -0.0046601137 0.0015101468 0.017211327 0.022774385
0000c0 21 7b 92 bc 49 49 ae 3c 00 00 00 00 83 61 98 bc
       -0.017880978 0.02127518 0.0 -0.018601185
0000d0 09 e9 15 bc 00 00 00 00 00 00 00 00 c3 8f 93 ba
       -0.009149798 0.0 0.0 -0.0011258054
0000e0 13 44 85 bc d5 18 f0 3b d1 e7 35 bb f9 be 19 bb
       -0.016267812 0.007327179 -0.0027756582 -0.0023459776
0000f0 1d f5 1a 3c c9 f5 07 3c 2d 61 81 ba ab c3 ac 3c
       0.009457854 0.008298346 -0.000987088 0.021089396
000100 00 00 00 00 a5 48 7d 3c af a9 47 3c 9d 74 b8 3b
       0.0 0.015459214 0.012186452 0.0056291358
000110 5a dc 9a bb 4e 11 ab bb 22 eb 5e 3c 33 af 62 bc
       -0.004725975 -0.0052205687 0.013605865 -0.013835716
000120 fa 01 c4 3c 00 00 00 00 3a fb 18 3c b1 25 db bb
       0.023926724 0.0 0.009337241 -0.006687843
000130 4c 8a 4a bc d1 11 b4 3b f1 5c 78 bb 9c 45 21 3c
       -0.012362074 0.005495288 -0.0037897194 0.009843256
000140 57 a8 cb bb 75 5c 88 3c 50 0d f6 bb 8d db 95 3c
       -0.006215136 0.01664565 -0.007508911 0.018293167
000150 68 c6 81 3b 25 4e 24 3c 00 00 00 00 01 24 69 bc
       0.0039604194 0.010028397 0.0 -0.014229775
000160 24 c4 89 bc e3 76 e3 3a 74 c7 50 bc d3 7e c4 bb
       -0.01681716 0.0017354157 -0.012742866 -0.005996564
000170 98 c2 15 bc 34 7b b8 3c f3 a8 0d bc 46 d9 3d 3c
       -0.009140633 0.022519685 -0.008646238 0.011587447
000180 fe de a4 b9 70 3a db bb a0 73 3b 3b f3 6c d1 bb
       -0.0003144666 -0.006690316 0.0028602853 -0.0063911616
000190 0a 09 a9 3a 21 5c c1 3c 38 46 b4 bb 78 cc a5 3c
       0.0012896371 0.0236035 -0.005501535 0.0202391
0001a0 3f 1e 1d bc 7f 79 14 b9 88 54 c6 3b cb 5f 5e bb
       -0.009589731 -0.0001415964 0.0060525574 -0.0033931609
0001b0 0c 48 1b 3c 00 00 00 00 0e 23 30 3c 6b a0 2a bc
       0.0094776265 0.0 0.010750545 -0.010414223
0001c0 9f e1 0a bc e2 fc 28 bc ba e1 07 bc f9 f7 f4 bb
       -0.008476644 -0.010314198 -0.0082935635 -0.0074758497
0001d0 6e a9 62 3c bd eb a1 bb aa 57 d9 bb ba 85 9a b9
       0.0138343405 -0.0049414323 -0.006632765 -0.00029472803
0001e0 b0 d6 46 3c be d2 14 3b f7 e2 52 bc 31 ca 49 3c
       0.012136146 0.002270862 -0.012871495 0.012316273
0001f0 40 78 1f bb ec 7e a3 ba a3 9a 12 bc 00 00 00 00
       -0.002433315 -0.0012473739 -0.008948001 0.0

sequential/dense_1/BiasAdd/ReadVariableOp f4 [3]
000000 ab 10 d2 3b 85 c8 49 bc 4f 98 1a 3b
       0.0064106784 -0.012315874 0.0023589318

sequential/dense/MatMul f4 [128, 128]
000000 56 d4 ff bc 5d 8f 19 3e 34 03 a2 bd 73 df aa bd
       -0.03122918 0.14996095 -0.07910767 -0.08343401
000010 f1 26 06 3d de 14 c7 3c d0 cd 9e 3c 04 32 84 3d
       0.03275198 0.024301942 0.019385248 0.06454852
000020 66 59 13 be 1f ce 8e 3d 21 02 5f bd 69 53 d0 bc
       -0.14389572 0.06972908 -0.05444539 -0.025430398
000030 b7 a8 3d 3e 71 ba 16 be b0 b6 72 3c e3 07 86 bc
       0.18521391 -0.14719559 0.014814064 -0.016361183
000040 d0 99 3e 3b 10 01 3f bd 1f c4 88 bd 81 f0 2b bd
       0.0029083379 -0.046631873 -0.06678032 -0.04197741
000050 30 da 19 3e 16 55 40 3e ab 26 c4 3c 0f d6 e9 3d
       0.15024638 0.18782458 0.02394422 0.114177816
000060 a8 38 81 bd b4 52 9d bd b4 30 68 3d 61 c7 27 be
       -0.063096344 -0.0768179 0.056687072 -0.16384651
000070 67 b4 11 be ef 0e ac 3d 00 60 c6 b7 69 ea b4 bd
       -0.14228974 0.08401286 -2.3648143e-05 -0.08833773
000080 4e 89 ee 3b c5 92 38 3e 2e be 11 be 4c 9d d3 bc
       0.0072795516 0.18024738 -0.14232704 -0.025831841
000090 4a 61 72 bc b2 77 fb 3d e8 ed 35 3d 01 dc 9c bd
       -0.014793703 0.122786894 0.04441634 -0.0765915
0000a0 17 43 88 bd 4c 71 e0 3d 1d a9 a0 3c 10 2a 95 3b
       -0.06653421 0.1095911 0.01961189 0.0045521334
0000b0 13 0b de 3d d0 ff e2 bd 1c 5a c3 3d dc 46 77 3c
       0.10841956 -0.110839486 0.095386714 0.015092578
0000c0 ac 60 f0 3c 6e 2f 0a be 2d 07 07 3e dc 60 8b 3d
       0.029342972 -0.13494655 0.13186331 0.06805584
0000d0 a4 58 53 bd f7 ae 1c be 16 8b 8c 3d 0f ef 2c bc
       -0.051598206 -0.15301119 0.06862466 -0.010555043
0000e0 4b bd 29 3d d8 28 67 bd 6d 2c 0a bd 6d 11 24 bd
       0.04144029 -0.056435436 -0.033733774 -0.04005568
0000f0 23 c3 b5 bd 21 7a 13 3e 97 bb 04 3e cc 6a 6f 3d
       -0.0887511 0.14402057 0.12962185 0.05845146
000100 3e 2f 96 3c 71 6a c5 3c 9c 15 9d 3d ac 55 09 bc
       0.018333074 0.024098607 0.07670137 -0.008382242
000110 ae 02 63 bd c7 d6 24 3e 6b 7f 11 3e 30 09 8c 3d
       -0.055422477 0.16097556 0.14208762 0.0683769
000120 d0 4c 4e 3c b5 8c 0e bd d9 5b af bd 9a a2 a7 bd
       0.012591556 -0.034802157 -0.085624404 -0.08185311
000130 16 1e 56 bd d8 63 cf 3c 60 cc 40 bd 35 94 32 3e
       -0.052274786 0.025316164 -0.047069907 0.17439349
000140 2b 5d f5 bd 19 67 7e 3c 9c bc 41 3d b9 da 21 3d
       -0.11980661 0.01552751 0.047299013 0.03951523
000150 c9 b1 07 bd 0a f4 0f 3e 23 bf 13 bc 33 1d 7d bd
       -0.033128534 0.14057937 -0.0090177385 -0.061795425
000160 d4 11 dd 3b 55 6e 11 3e 06 72 68 bd 34 85 76 3c
       0.00674651 0.14202245 -0.056749366 0.015046407
000170 84 bb db 3c 4b 60 8f 3d a8 62 c3 3c 4a 8b 11 bd
       0.026822813 0.07000788 0.023850754 -0.035533227
000180 55 c3 7d 3d 32 55 a2 3d 40 20 4f 3c fd 10 23 3d
       0.06195386 0.07926406 0.012641966 0.039811123
000190 82 0d 19 3d d8 15 84 bd 14 4d 1f 3e d2 ed e8 3d
       0.037366398 -0.06449479 0.15556747 0.113734856
0001a0 00 40 75 b9 c6 38 f1 3d d4 20 84 3d 81 33 ff 3d
       -0.00023388863 0.11778407 0.06451574 0.124609955
0001b0 68 23 29 3e 68 b0 b9 3c 8f 81 15 3d da 70 1d be
       0.16517413 0.022667125 0.03650051 -0.1537508
0001c0 05 5f fe 3d af 15 00 bd 23 5a 94 bb 8d c7 af bc
       0.12420467 -0.03127068 -0.0045273467 -0.021457458
0001d0 61 45 7f bd 78 9e 12 bd 77 ca 87 bd 2a 2a 16 be
       -0.062322024 -0.03579566 -0.06630414 -0.14664522
0001e0 c3 0c 90 bd 42 62 bf 3b 6d c9 05 be 41 e5 fd bb
       -0.07033684 0.0058405707 -0.13065119 -0.0077482765
0001f0 ff 5e 94 bd 7f bb 38 3e 13 dd b6 bd c8 6d 85 bd
       -0.072446816 0.18040274 -0.08928885 -0.0651508
000200 d9 e3 ee 3d 47 d5 a5 3b f7 7a 13 3e 77 43 20 bd
       0.11664552 0.005060825 0.14402376 -0.03912684
000210 14 f3 77 bd 3b 5c 4c bd 28 f9 c0 3c 65 e8 1f bd
       -0.06053455 -0.049892645 0.023556307 -0.039039988
000220 7a 8b bb 3d 07 17 87 bd 35 de c2 3d a8 b8 a1 3d
       0.091574624 -0.06596189 0.09515039 0.078965485
000230 4d 6d 0f 3e 99 24 15 3e c0 e3 b4 bd 50 15 50 bd
       0.14006539 0.14564742 -0.08832502 -0.050801575
000240 73 2d f3 3d 0e dc da 3d 7b bd 0e 3e 22 d5 f9 bc
       0.11873903 0.10686503 0.13939469 -0.030497137
000250 70 25 01 be 86 df 13 3e 48 0b ba bd 58 21 06 bd
       -0.12611938 0.14440736 -0.09084183 -0.032746643
000260 21 b3 c5 bd ae 1d c2 bd f2 df 2b 3e 26 7a 22 3e
       -0.09653307 -0.09478317 0.16784647 0.15866908
000270 16 80 1e bd 46 5c a5 bd a8 f0 8a bc 98 19 ae 3d
       -0.03869637 -0.080742404 -0.016960457 0.08500975
000280 23 fd f3 bd 49 35 c9 3d 7f 70 ef bd 1e 8b 85 3d
       -0.11913516 0.098246165 -0.11691379 0.06520675
000290 78 1b f4 3d 20 c8 35 3d cc 38 38 bd 46 a0 00 be
       0.11919302 0.044380307 -0.04497604 -0.1256114
0002a0 90 8d 70 bc e1 78 23 bd 84 7c 4f 3b 96 16 d5 3d
       -0.014682189 -0.0399102 0.003165991 0.104046986
0002b0 20 75 5f 3b 72 e8 cf bd b8 09 42 bd ca e5 30 3d
       0.0034096912 -0.10151757 -0.04737255 0.043187894
0002c0 9f 43 ef bd 66 99 ad 3d 42 65 f0 3d 79 da cf 3c
       -0.116828196 0.08476524 0.117380634 0.02537273
0002d0 c0 da fa bd 0f 0f 04 3e 1d 03 cb 3d 4c 1c e2 3a
       -0.122487545 0.1289637 0.09912703 0.0017250865
0002e0 b5 a5 15 bb 7a 38 85 bd 9d 64 0e 3e 6d 6e af 3c
       -0.0022834365 -0.06504913 0.13905568 0.02141496
0002f0 76 de 04 bc b9 b1 94 3c 71 79 90 bd 1d 15 21 3e
       -0.008109679 0.018151151 -0.07054413 0.1573071
000300 f1 95 b9 3d 2d e3 36 be 5a 22 7c 3d 12 7b 90 3d
       0.09061802 -0.17860098 0.061556198 0.07054724
000310 e1 e6 95 3d 10 2d 39 be 44 15 ab 3d a9 ea fe 3d
       0.07319427 -0.18083596 0.083536655 0.124471016
000320 b8 9d bf bc 9b 10 a0 3d 42 fa 2a bc d3 84 2b bd
       -0.023390636 0.07815667 -0.010435643 -0.041874718
000330 2b db fc 3d 10 84 86 3c 19 53 aa bd 39 38 1f 3e
       0.123464905 0.016420394 -0.08316631 0.15548791
000340 a6 a6 52 bd 62 12 98 bd 6b 61 23 3c 6c 50 08 bd
       -0.05142846 -0.07425381 0.009971957 -0.03327982
000350 80 2d fb bd 07 37 bb bd 59 8e df bc b3 9c 2e 3e
       -0.12264538 -0.09141355 -0.027289556 0.17051964
000360 9d 88 b8 3d 01 2f 0d 3e 53 6e cc bd 8c 7a 18 3e
       0.09010432 0.13787462 -0.0998198 0.14890498
000370 46 a4 ad bd 66 fe df bd 82 c9 81 3d 63 f0 7c 3d
       -0.08478598 -0.109371945 0.06337263 0.06175269
000380 04 a1 ee 3d a4 a2 f3 bc 17 d9 0b 3e b2 33 82 bc
       0.11651805 -0.029740639 0.13657032 -0.01589379
000390 86 86 38 3d 55 ca 14 bd cb 0b b2 bd 64 7b 41 bd
       0.045050167 -0.03632577 -0.086936556 -0.047236815
0003a0 70 da 04 be 63 6e 08 3b 7a 62 af bd 3c c5 cc bc
       -0.12973952 0.0020817749 -0.08563705 -0.024996392
0003b0 8c 1d 42 bd e0 c6 1d 3c 7b 27 53 bd e0 40 25 bd
       -0.04739146 0.009629935 -0.051551323 -0.040345073
0003c0 fe bc 31 bc 46 1d e0 3d 7a 88 cb 3b 2d 99 ba bd
       -0.010848282 0.109430835 0.0062113376 -0.09111247
0003d0 9a 0c 15 3e 88 7a 80 bd ea 94 5b bd 0e 20 c3 bd
       0.14555588 -0.06273371 -0.053608812 -0.09527598
0003e0 d5 16 9e 3d 00 37 1a 3d 07 b1 ae bd 33 13 b8 bd
       0.077191986 0.03765011 -0.08529859 -0.08988037
0003f0 f1 8c 29 bd e0 d8 e2 bd 05 b4 b5 3c 30 35 0d bd
       -0.041394178 -0.11076522 0.022180567 -0.03447455

sequential/dense_1/MatMul f4 [3, 128]
000000 33 24 2c 3e 74 c6 a5 3d 28 06 66 3d 57 e3 60 bd
       0.16810684 0.080944926 0.056158215 -0.05490431
000010 88 d6 92 3d c2 31 40 be 38 01 51 3e 0a 6e 8d 3d
       0.07169825 -0.18768981 0.20410621 0.06905754
000020 5b 31 37 be b2 9d 20 be 83 cb b4 bd 73 0b 38 be
       -0.17889921 -0.15685156 -0.08827879 -0.17973118
000030 37 10 48 be 73 fc 3f 3e d3 f4 7a bd 6b 1c c7 bd
       -0.19537435 0.18748645 -0.06126864 -0.09722217
000040 cc c5 2d 3d 26 61 06 3e 0e 72 a9 bc 0d 3a 14 bd
       0.042424962 0.13122997 -0.020684268 -0.036188174
000050 4d f7 2b 3e 12 4f 4e 3d 40 56 19 bb 2d 3b 44 3e
       0.16793557 0.050368376 -0.0023397356 0.19163199
000060 ca ea 50 be 6b 3c 46 be 38 61 ba bd 5b 25 4c be
       -0.20402065 -0.19358985 -0.09100574 -0.19936125
000070 7d 96 6b be 4c 2a 98 3d a0 8b e1 bd b8 76 f8 3d
       -0.23006625 0.074299425 -0.110129595 0.12132019
000080 55 d1 b1 3c bd 38 11 3e 0f e2 90 3d 67 fd 8e 3d
       0.021706263 0.141818 0.07074367 0.069819264
000090 f3 82 5b be ef 12 09 be 35 90 47 3e e1 ec b6 3d
       -0.21436672 -0.13386129 0.19488604 0.089319
0000a0 d7 b1 39 bd 4a 9a 12 be 57 fd f4 3d 7d e2 11 3e
       -0.045335617 -0.14316669 0.11962383 0.14246555
0000b0 c2 3c 24 3d ed 3a 03 be 72 8f 36 3e 33 c7 d5 3d
       0.040097006 -0.12815447 0.17828158 0.10438385
0000c0 86 7e 01 be 20 43 28 3e 95 30 18 3e 92 58 03 be
       -0.12645921 0.16431856 0.14862283 -0.12826756
0000d0 7d 9b ca bd 5e 49 9a 3d 30 0d 6f 3c a2 dd 48 be
       -0.09892938 0.07533525 0.0145905465 -0.19615796
0000e0 88 50 2b bd 80 9b 9c bd 88 8c 11 3e 8f eb 0d be
       -0.041824847 -0.07646847 0.14213765 -0.1385939
0000f0 e1 d8 b1 3c b5 35 bb bd 08 b8 29 bd 35 cb 3c 3e
       0.021709861 -0.09141103 -0.04143527 0.18436892
000100 8e 55 ff 3d 41 16 5b 3e df f7 d2 bd 46 45 b1 3d
       0.1246749 0.21395208 -0.10301184 0.08655791
000110 4f 64 40 be a3 aa dd 3c e8 c1 2c be ab a2 0e be
       -0.18788265 0.027058905 -0.16870844 -0.1392924
000120 85 7f 67 3e 20 f8 ab 3b c8 27 03 3e 8e cc e7 3d
       0.22607239 0.0052480847 0.12808144 0.113183126
000130 e2 f2 14 be 60 1e 0b 3e 67 b1 46 be 82 3a 4d be
       -0.14545777 0.13585806 -0.19403611 -0.2004185
000140 f0 9e ee bd 35 49 d6 3d ef b2 72 bd 5a bd 77 bc
       -0.11651409 0.10463182 -0.059252676 -0.0151208285
000150 aa 54 64 be 59 45 5c 3e f4 c1 4b 3d 84 fb 83 bd
       -0.22297922 0.21510829 0.049745515 -0.06444457
000160 67 9b f0 bd e1 f6 db bd 12 b1 b4 3c 63 88 2c 3e
       -0.11748391 -0.10740448 0.02205709 0.16848902
000170 0d 9a e4 3c 6b 11 92 3d f4 32 42 3c 15 df 22 3e
       0.027905488 0.071322285 0.0118529685 0.15905412
000180 25 e8 e4 bd 9f 32 0d be 0a f9 1f 3d 70 bd 9e 3a
       -0.111770906 -0.13788842 0.03905586 0.00121109
000190 b4 1a 8f bd 64 56 2d 3e 10 ae e0 3d 68 2c 1d bd
       -0.06987515 0.16927487 0.109707 -0.038372427
0001a0 1d 13 f8 bd e8 33 0b 3e bc 37 23 bd df fa e5 3c
       -0.121130206 0.1359402 -0.039848074 0.028073726
0001b0 45 21 3c 3e c0 9f 2f 3b 88 80 c7 bd 6d 26 4b bd
       0.18372066 0.00267981 -0.09741312 -0.049597193
0001c0 88 ec 2f be a9 b5 03 3e f0 33 43 be 95 87 c3 3d
       -0.17180073 0.12862267 -0.19062781 0.095473446
0001d0 14 e7 58 3e d2 c1 07 be ce 57 ef bd 73 4f 35 be
       0.211819 -0.1325753 -0.11686669 -0.17706089
0001e0 e0 51 b5 bd 1d 63 ce 3d 04 15 47 be 3f d2 42 bd
       -0.08853507 0.10077498 -0.1944161 -0.047563788
0001f0 c0 81 aa bd 63 ac 58 bb b8 0c b3 3d 6b f3 2b 3e
       -0.08325529 -0.0033061735 0.0874266 0.16792075
000200 d5 f9 02 be 0f 12 97 bc 0a 9d 24 be 94 b6 0f be
       -0.12790616 -0.018441228 -0.1607553 -0.14034492
000210 95 7b 04 be 13 07 c8 bd a4 cb 3f be 83 78 20 be
       -0.12937768 -0.09766974 -0.18730026 -0.15670972
000220 6e e4 6d bb 2a d2 be 3d 9f fb 35 be 61 10 c5 bd
       -0.0036299485 0.09317429 -0.17771767 -0.09622265
000230 3b 6a 1c be 0d 8c 17 3c 44 ec 43 be 94 8c 3c be
       -0.15274899 0.009249699 -0.19133097 -0.18413001
000240 00 9c aa 3a c4 d8 01 bd 10 4e 6e be e0 18 20 3d
       0.0013016462 -0.031700864 -0.23271966 0.039086223
000250 21 87 82 3d 32 37 88 3d b4 16 5d 3d 4f e1 bf 3c
       0.0637343 0.06651153 0.05397673 0.023422865
000260 f1 45 0f 3e 86 84 4f 3e 7a 01 95 bd 28 ad b0 3d
       0.13991524 0.20265397 -0.07275672 0.08626777
000270 27 0a f2 3d 91 e7 67 3d ad 80 d7 3d 26 50 17 3c
       0.11818343 0.056617323 0.1052259 0.0092354175
000280 4e 4a 4d 3e d6 3d 82 bd 5a 54 36 be a7 5a 28 3e
       0.20047876 -0.063594505 -0.17805615 0.16440831
000290 e4 ce ec bd ac 9d 0d 3d 40 a6 2c be a5 f6 62 3e
       -0.11562899 0.034574196 -0.16860294 0.221644
0002a0 e4 41 05 be 8a 5b 2d 3e d9 15 9b 3d 3e 76 86 bd
       -0.13013417 0.1692945 0.075725265 -0.06565522
0002b0 cc 3a 55 3d 96 2b 0d 3c 05 22 5c be d6 7c fd bd
       0.052058026 0.008616349 -0.21497352 -0.12377326
0002c0 d0 bf 43 bd 43 fb 69 be 06 5a db 3d 32 e9 b9 3d
       -0.04779035 -0.22849755 0.1071053 0.090776816
0002d0 7c 2a 15 be 89 44 c0 bd dd dc 1c 3e 38 b1 1d 3e
       -0.14566988 -0.09388072 0.15318628 0.15399635
0002e0 15 e8 2d 3e 8b 30 b4 3d 95 9e 29 bc 3e ab 1a be
       0.16983064 0.08798321 -0.01035275 -0.15104386
0002f0 a5 83 15 be b9 db b2 bc 1c 3c 46 3e cd b8 de bc
       -0.14601 -0.021833288 0.19358867 -0.02718773
000300 12 6b ea 3d 3e ee 7e be 09 e1 66 be cc 30 f3 bd
       0.11446203 -0.2489557 -0.22546782 -0.11874542
000310 5a 18 99 3d 1a bd 27 3e 8a 18 95 bc ed 24 de 3c
       0.07475348 0.1638073 -0.018200178 0.027117217
000320 23 f2 b5 3c 50 b7 5a bc dd 2b ef bd 79 2a 76 3d
       0.022210186 -0.013349369 -0.11678288 0.0600991
000330 7f d1 e8 3c fc 16 9d bd b9 7d 25 bd 8c a2 68 bc
       0.028420208 -0.076703995 -0.0404031 -0.01419891
000340 6d 50 4b 3e 70 35 7c be 4b b5 97 3d 7f 52 69 be
       0.19854899 -0.2462976 0.07407626 -0.22785376
000350 2d bb ff bd 2c 02 94 bd 3e e9 ab bd c3 43 45 3e
       -0.12486873 -0.07226977 -0.08394097 0.1926413
000360 55 30 b3 3c 61 1b 65 3e dc 17 a1 bd b7 30 20 bd
       0.021873632 0.22373725 -0.07865879 -0.039108958
000370 6b e2 2e be 64 c2 89 be d7 5c 40 3e 1e 5c 56 be
       -0.17078559 -0.2690612 0.18785416 -0.20933577
000380 77 d3 14 3e 08 6d 54 be a3 97 89 bd 90 52 56 bc
       0.14533792 -0.20744717 -0.067183755 -0.013081208
000390 29 ee 26 3e df 60 80 bd 1a 41 92 3d 42 7e 3d be
       0.16301788 -0.06268477 0.071413234 -0.18505195
0003a0 7e d6 84 3d 97 bc a6 bc 07 68 e0 3d 58 a3 cb 3d
       0.06486224 -0.020353599 0.10957342 0.09943265
0003b0 ee b2 03 3e 2f 7e 3f be e5 b0 04 be a3 cf c1 bd
       0.12861225 -0.18700479 -0.12958105 -0.09463432
0003c0 1d 9b 40 3e 6d 5d 5f 3e 97 f4 b0 3d ba 40 4d 3e
       0.18809171 0.21812983 0.08640402 0.20044222
0003d0 26 20 70 be 10 6d 41 bd a3 65 51 3e eb 17 ca 3d
       -0.23449764 -0.04722315 0.20448928 0.09867843
0003e0 f2 19 3b be b2 14 fc 3b 11 84 c9 3d 70 68 6a be
       -0.18271616 0.0076928968 0.09839643 -0.22891402
0003f0 7d 8e 57 3e f6 82 d3 3c be 79 fe ba 67 70 23 3e
       0.21050449 0.025819283 -0.0019414944 0.15960847
